…
Epoch 15/15
62500/62500 [==============================] - 1505s 24ms/step - loss: 0.0789 - accuracy: 0.8820 - val_loss: 0.0733 - val_accuracy: 0.8981
Total trainable base-model layers: 91
22921/22921 [==============================] - 231s 10ms/step - loss: 0.0583 - accuracy: 0.9218
Frozen model: test loss, test acc: [0.05833018571138382, 0.9218075275421143]
Model: "sequential"
_________________________________________________________________
 Layer (type)                Output Shape              Param #
=================================================================
 efficientnetv2-b0 (Function  (None, 1280)             5919312
 al)

 base_dropout (Dropout)      (None, 1280)              0

 compression_bottleneck (Den  (None, 256)              327936
 se)

 top_dropout (Dropout)       (None, 256)               0

 classification (Dense)      (None, 25)                6425

=================================================================
Total params: 6,253,673
Trainable params: 5,658,061
Non-trainable params: 595,612
_________________________________________________________________
100%|██████████| 50/50 [07:08<00:00,  8.56s/it]
>>>> Stage: 1/3, target_shape: 224, dropout: 0.1, magnitude: 5, batch_size: 4
>>>> This stage runs from epoch 1 to 10 out of 50 total epochs
…
